…
le \"/u/svcndifuser/ndif-deployment/repos/prod/ndif/src/services/ray/src/ray/nn/backend.py\", line 24, in __call__\n    run(tracer, self.fn)\n  File \"/u/svcndifuser/ndif-deployment/repos/prod/ndif/src/services/ray/src/ray/nn/sandbox.py\", line 16, in run\n    raise wrap_exception(e, tracer.info) from None\nnnsight.NNsightException: \n\nTraceback (most recent call last):\n  File \"/u/svcndifuser/ndif-deployment/repos/prod/ndif/src/services/ray/src/ray/nn/sandbox.py\", line 6, in run\n    hidden = model.model.transformer.blocks[0].output[0].save()\n\nAttributeError: Olmo3Model(\n  (embed_tokens): Embedding(100278, 4096, padding_idx=100277)\n  (layers): ModuleList(\n    (0-31): 32 x Olmo3DecoderLayer(\n      (self_attn): Olmo3Attention(\n        (q_proj): Linear(in_features=4096, out_features=4096, bias=False)\n        (k_proj): Linear(in_features=4096, out_features=4096, bias=False)\n        (v_proj): Linear(in_features=4096, out_features=4096, bias=False)\n        (o_proj): Linear(in_features=4096, out_features=4096, bias=False)\n        (q_norm): Olmo3RMSNorm((4096,), eps=1e-06)\n        (k_norm): Olmo3RMSNorm((4096,), eps=1e-06)\n      )\n      (mlp): Olmo3MLP(\n        (gate_proj): Linear(in_features=4096, out_features=11008, bias=False)\n        (up_proj): Linear(in_features=4096, out_features=11008, bias=False)\n        (down_proj): Linear(in_features=11008, out_features=4096, bias=False)\n        (act_fn): SiLUActivation()\n      )\n      (post_attention_layernorm): Olmo3RMSNorm((4096,), eps=1e-06)\n      (post_feedforward_layernorm): Olmo3RMSNorm((4096,), eps=1e-06)\n    )\n  )\n  (norm): Olmo3RMSNorm((4096,), eps=1e-06)\n  (rotary_embs): ModuleDict(\n    (sliding_attention): Olmo3RotaryEmbedding()\n    (full_attention): Olmo3RotaryEmbedding()\n  )\n) has no attribute transformer\n\n\n\nTraceback (most recent call last):\n  File \"/u/svcndifuser/ndif-deployment/repos/prod/ndif/src/services/ray/src/ray/nn/sandbox.py\", line 6, in run\n    hidden = model.model.transformer.blocks[0].output[0].save()\n\nAttributeError: Olmo3Model(\n  (embed_tokens): Embedding(100278, 4096, padding_idx=100277)\n  (layers): ModuleList(\n    (0-31): 32 x Olmo3DecoderLayer(\n      (self_attn): Olmo3Attention(\n        (q_proj): Linear(in_features=4096, out_features=4096, bias=False)\n        (k_proj): Linear(in_features=4096, out_features=4096, bias=False)\n        (v_proj): Linear(in_features=4096, out_features=4096, bias=False)\n        (o_proj): Linear(in_features=4096, out_features=4096, bias=False)\n        (q_norm): Olmo3RMSNorm((4096,), eps=1e-06)\n        (k_norm): Olmo3RMSNorm((4096,), eps=1e-06)\n      )\n      (mlp): Olmo3MLP(\n        (gate_proj): Linear(in_features=4096, out_features=11008, bias=False)\n        (up_proj): Linear(in_features=4096, out_features=11008, bias=False)\n        (down_proj): Linear(in_features=11008, out_features=4096, bias=False)\n        (act_fn): SiLUActivation()\n      )\n      (post_attention_layernorm): Olmo3RMSNorm((4096,), eps=1e-06)\n      (post_feedforward_layernorm): Olmo3RMSNorm((4096,), eps=1e-06)\n    )\n  )\n  (norm): Olmo3RMSNorm((4096,), eps=1e-06)\n  (rotary_embs): ModuleDict(\n    (sliding_attention): Olmo3RotaryEmbedding()\n    (full_attention): Olmo3RotaryEmbedding()\n  )\n) has no attribute transformer\nRemote exception.\n\n",
…
