…
 \"/u/svcndifuser/ndif-deployment/repos/prod/ndif/src/services/ray/src/ray/nn/backend.py\", line 24, in __call__\n    run(tracer, self.fn)\n  File \"/u/svcndifuser/ndif-deployment/repos/prod/ndif/src/services/ray/src/ray/nn/sandbox.py\", line 16, in run\n    raise wrap_exception(e, tracer.info) from None\nnnsight.NNsightException: \n\nTraceback (most recent call last):\n  File \"/u/svcndifuser/ndif-deployment/repos/prod/ndif/src/services/ray/src/ray/nn/sandbox.py\", line 6, in run\n    if hasattr(model.model, 'layers'):\n\nAttributeError: GPTJForCausalLM(\n  (transformer): GPTJModel(\n    (wte): Embedding(50400, 4096)\n    (drop): Dropout(p=0.0, inplace=False)\n    (h): ModuleList(\n      (0-27): 28 x GPTJBlock(\n        (ln_1): LayerNorm((4096,), eps=1e-05, elementwise_affine=True)\n        (attn): GPTJAttention(\n          (attn_dropout): Dropout(p=0.0, inplace=False)\n          (resid_dropout): Dropout(p=0.0, inplace=False)\n          (k_proj): Linear(in_features=4096, out_features=4096, bias=False)\n          (v_proj): Linear(in_features=4096, out_features=4096, bias=False)\n          (q_proj): Linear(in_features=4096, out_features=4096, bias=False)\n          (out_proj): Linear(in_features=4096, out_features=4096, bias=False)\n        )\n        (mlp): GPTJMLP(\n          (fc_in): Linear(in_features=4096, out_features=16384, bias=True)\n          (fc_out): Linear(in_features=16384, out_features=4096, bias=True)\n          (act): NewGELUActivation()\n          (dropout): Dropout(p=0.0, inplace=False)\n        )\n      )\n    )\n    (ln_f): LayerNorm((4096,), eps=1e-05, elementwise_affine=True)\n  )\n  (lm_head): Linear(in_features=4096, out_features=50400, bias=True)\n  (generator): Generator(\n    (streamer): Streamer()\n  )\n) has no attribute model\n\n\n\nTraceback (most recent call last):\n  File \"/u/svcndifuser/ndif-deployment/repos/prod/ndif/src/services/ray/src/ray/nn/sandbox.py\", line 6, in run\n    if hasattr(model.model, 'layers'):\n\nAttributeError: GPTJForCausalLM(\n  (transformer): GPTJModel(\n    (wte): Embedding(50400, 4096)\n    (drop): Dropout(p=0.0, inplace=False)\n    (h): ModuleList(\n      (0-27): 28 x GPTJBlock(\n        (ln_1): LayerNorm((4096,), eps=1e-05, elementwise_affine=True)\n        (attn): GPTJAttention(\n          (attn_dropout): Dropout(p=0.0, inplace=False)\n          (resid_dropout): Dropout(p=0.0, inplace=False)\n          (k_proj): Linear(in_features=4096, out_features=4096, bias=False)\n          (v_proj): Linear(in_features=4096, out_features=4096, bias=False)\n          (q_proj): Linear(in_features=4096, out_features=4096, bias=False)\n          (out_proj): Linear(in_features=4096, out_features=4096, bias=False)\n        )\n        (mlp): GPTJMLP(\n          (fc_in): Linear(in_features=4096, out_features=16384, bias=True)\n          (fc_out): Linear(in_features=16384, out_features=4096, bias=True)\n          (act): NewGELUActivation()\n          (dropout): Dropout(p=0.0, inplace=False)\n        )\n      )\n    )\n    (ln_f): LayerNorm((4096,), eps=1e-05, elementwise_affine=True)\n  )\n  (lm_head): Linear(in_features=4096, out_features=50400, bias=True)\n  (generator): Generator(\n    (streamer): Streamer()\n  )\n) has no attribute model\nRemote exception.\n\n",
      "timestamp": "2026-01-10T16:27:10.911273Z"
    },
    {
      "model": "EleutherAI/gpt-j-6b",
      "scenario": "generation",
      "status": "OK",
      "duration_ms": 22214,
      "error_category": null,
      "details": null,
      "timestamp": "2026-01-10T16:27:33.130316Z"
…
;28;01mreturn\u001b[39;00m value\n\u001b[32m   1081\u001b[39m \u001b[38;5;28;01melse\u001b[39;00m:\n\u001b[32m-> \u001b[39m\u001b[32m1082\u001b[39m     \u001b[38;5;28;01mraise\u001b[39;00m \u001b[38;5;167;01mAttributeError\u001b[39;00m(\u001b[33mf\u001b[39m\u001b[33m\"\u001b[39m\u001b[38;5;132;01m{\u001b[39;00m\u001b[38;5;28mself\u001b[39m\u001b[38;5;132;01m}\u001b[39;00m\u001b[33m has no attribute \u001b[39m\u001b[38;5;132;01m{\u001b[39;00mname\u001b[38;5;132;01m}\u001b[39;00m\u001b[33m\"\u001b[39m)\n\n\u001b[31mAttributeError\u001b[39m: GPTJForCausalLM(\n  (transformer): GPTJModel(\n    (wte): Embedding(50400, 4096)\n    (drop): Dropout(p=0.0, inplace=False)\n    (h): ModuleList(\n      (0-27): 28 x GPTJBlock(\n        (ln_1): LayerNorm((4096,), eps=1e-05, elementwise_affine=True)\n        (attn): GPTJAttention(\n          (attn_dropout): Dropout(p=0.0, inplace=False)\n          (resid_dropout): Dropout(p=0.0, inplace=False)\n          (k_proj): Linear(in_features=4096, out_features=4096, bias=False)\n          (v_proj): Linear(in_features=4096, out_features=4096, bias=False)\n          (q_proj): Linear(in_features=4096, out_features=4096, bias=False)\n          (out_proj): Linear(in_features=4096, out_features=4096, bias=False)\n        )\n        (mlp): GPTJMLP(\n          (fc_in): Linear(in_features=4096, out_features=16384, bias=True)\n          (fc_out): Linear(in_features=16384, out_features=4096, bias=True)\n          (act): NewGELUActivation()\n          (dropout): Dropout(p=0.0, inplace=False)\n        )\n      )\n    )\n    (ln_f): LayerNorm((4096,), eps=1e-05, elementwise_affine=True)\n  )\n  (lm_head): Linear(in_features=4096, out_features=50400, bias=True)\n  (generator): Generator(\n    (streamer): Streamer()\n  )\n) has no attribute model\n\n",
      "timestamp": "2026-01-10T16:27:51.041976Z"
    },
    {
      "model": "allenai/Olmo-3-1025-7B",
      "scenario": "basic_trace",
      "status": "OK",
      "duration_ms": 19673,
      "error_category": null,
      "details": null,
      "timestamp": "2026-01-10T16:28:10.718617Z"
…
 \"/u/svcndifuser/ndif-deployment/repos/prod/ndif/src/services/ray/src/ray/nn/backend.py\", line 24, in __call__\n    run(tracer, self.fn)\n  File \"/u/svcndifuser/ndif-deployment/repos/prod/ndif/src/services/ray/src/ray/nn/sandbox.py\", line 16, in run\n    raise wrap_exception(e, tracer.info) from None\nnnsight.NNsightException: \n\nTraceback (most recent call last):\n  File \"/u/svcndifuser/ndif-deployment/repos/prod/ndif/src/services/ray/src/ray/nn/sandbox.py\", line 6, in run\n    if hasattr(model.model, 'layers'):\n\nAttributeError: GPT2LMHeadModel(\n  (transformer): GPT2Model(\n    (wte): Embedding(50257, 768)\n    (wpe): Embedding(1024, 768)\n    (drop): Dropout(p=0.1, inplace=False)\n    (h): ModuleList(\n      (0-11): 12 x GPT2Block(\n        (ln_1): LayerNorm((768,), eps=1e-05, elementwise_affine=True)\n        (attn): GPT2Attention(\n          (c_attn): Conv1D()\n          (c_proj): Conv1D()\n          (attn_dropout): Dropout(p=0.1, inplace=False)\n          (resid_dropout): Dropout(p=0.1, inplace=False)\n        )\n        (ln_2): LayerNorm((768,), eps=1e-05, elementwise_affine=True)\n        (mlp): GPT2MLP(\n          (c_fc): Conv1D()\n          (c_proj): Conv1D()\n          (act): NewGELUActivation()\n          (dropout): Dropout(p=0.1, inplace=False)\n        )\n      )\n    )\n    (ln_f): LayerNorm((768,), eps=1e-05, elementwise_affine=True)\n  )\n  (lm_head): Linear(in_features=768, out_features=50257, bias=False)\n  (generator): Generator(\n    (streamer): Streamer()\n  )\n) has no attribute model\n\n\n\nTraceback (most recent call last):\n  File \"/u/svcndifuser/ndif-deployment/repos/prod/ndif/src/services/ray/src/ray/nn/sandbox.py\", line 6, in run\n    if hasattr(model.model, 'layers'):\n\nAttributeError: GPT2LMHeadModel(\n  (transformer): GPT2Model(\n    (wte): Embedding(50257, 768)\n    (wpe): Embedding(1024, 768)\n    (drop): Dropout(p=0.1, inplace=False)\n    (h): ModuleList(\n      (0-11): 12 x GPT2Block(\n        (ln_1): LayerNorm((768,), eps=1e-05, elementwise_affine=True)\n        (attn): GPT2Attention(\n          (c_attn): Conv1D()\n          (c_proj): Conv1D()\n          (attn_dropout): Dropout(p=0.1, inplace=False)\n          (resid_dropout): Dropout(p=0.1, inplace=False)\n        )\n        (ln_2): LayerNorm((768,), eps=1e-05, elementwise_affine=True)\n        (mlp): GPT2MLP(\n          (c_fc): Conv1D()\n          (c_proj): Conv1D()\n          (act): NewGELUActivation()\n          (dropout): Dropout(p=0.1, inplace=False)\n        )\n      )\n    )\n    (ln_f): LayerNorm((768,), eps=1e-05, elementwise_affine=True)\n  )\n  (lm_head): Linear(in_features=768, out_features=50257, bias=False)\n  (generator): Generator(\n    (streamer): Streamer()\n  )\n) has no attribute model\nRemote exception.\n\n",
      "timestamp": "2026-01-10T16:29:11.867447Z"
    },
    {
      "model": "openai-community/gpt2",
      "scenario": "generation",
      "status": "OK",
      "duration_ms": 23629,
      "error_category": null,
      "details": null,
      "timestamp": "2026-01-10T16:29:35.499391Z"
…
;28;01mreturn\u001b[39;00m value\n\u001b[32m   1081\u001b[39m \u001b[38;5;28;01melse\u001b[39;00m:\n\u001b[32m-> \u001b[39m\u001b[32m1082\u001b[39m     \u001b[38;5;28;01mraise\u001b[39;00m \u001b[38;5;167;01mAttributeError\u001b[39;00m(\u001b[33mf\u001b[39m\u001b[33m\"\u001b[39m\u001b[38;5;132;01m{\u001b[39;00m\u001b[38;5;28mself\u001b[39m\u001b[38;5;132;01m}\u001b[39;00m\u001b[33m has no attribute \u001b[39m\u001b[38;5;132;01m{\u001b[39;00mname\u001b[38;5;132;01m}\u001b[39;00m\u001b[33m\"\u001b[39m)\n\n\u001b[31mAttributeError\u001b[39m: GPT2LMHeadModel(\n  (transformer): GPT2Model(\n    (wte): Embedding(50257, 768)\n    (wpe): Embedding(1024, 768)\n    (drop): Dropout(p=0.1, inplace=False)\n    (h): ModuleList(\n      (0-11): 12 x GPT2Block(\n        (ln_1): LayerNorm((768,), eps=1e-05, elementwise_affine=True)\n        (attn): GPT2Attention(\n          (c_attn): Conv1D()\n          (c_proj): Conv1D()\n          (attn_dropout): Dropout(p=0.1, inplace=False)\n          (resid_dropout): Dropout(p=0.1, inplace=False)\n        )\n        (ln_2): LayerNorm((768,), eps=1e-05, elementwise_affine=True)\n        (mlp): GPT2MLP(\n          (c_fc): Conv1D()\n          (c_proj): Conv1D()\n          (act): NewGELUActivation()\n          (dropout): Dropout(p=0.1, inplace=False)\n        )\n      )\n    )\n    (ln_f): LayerNorm((768,), eps=1e-05, elementwise_affine=True)\n  )\n  (lm_head): Linear(in_features=768, out_features=50257, bias=False)\n  (generator): Generator(\n    (streamer): Streamer()\n  )\n) has no attribute model\n\n",
      "timestamp": "2026-01-10T16:29:53.144826Z"
    }
  ]
}